…
|  GPU       PID   Type   Process name                             Usage      |
|=============================================================================|
|  No running processes found                                                 |
+-----------------------------------------------------------------------------+
task:  twitter15
{'lr': 0.001, 'reg': 1e-06, 'embeding_size': 100, 'batch_size': 16, 'nb_filters': 100, 'kernel_sizes': [3, 4, 5], 'dropout': 0.5, 'epochs': 18, 'num_classes': 4, 'target_names': ['NR', 'FR', 'TR', 'UR'], 'save_path': 'checkpoint/weights.best.twitter15.pgan', 'maxlen': 50, 'n_heads': 10}
PGAN(
  (word_embedding): Embedding(2246, 300, padding_idx=0)
  (user_embedding): Embedding(2213, 100, padding_idx=0)
  (source_embedding): Embedding(1490, 100)
  (convs): ModuleList(
    (0): Conv1d(300, 100, kernel_size=(3,), stride=(1,))
    (1): Conv1d(300, 100, kernel_size=(4,), stride=(1,))
    (2): Conv1d(300, 100, kernel_size=(5,), stride=(1,))
  )
  (max_poolings): ModuleList(
    (0): MaxPool1d(kernel_size=48, stride=48, padding=0, dilation=1, ceil_mode=False)
    (1): MaxPool1d(kernel_size=47, stride=47, padding=0, dilation=1, ceil_mode=False)
    (2): MaxPool1d(kernel_size=46, stride=46, padding=0, dilation=1, ceil_mode=False)
  )
  (linear): Linear(in_features=400, out_features=200, bias=True)
  (dropout): Dropout(p=0.5, inplace=False)
  (relu): ReLU()
  (elu): ELU(alpha=1.0)
  (fc_out): Sequential(
    (0): Linear(in_features=500, out_features=100, bias=True)
    (1): ReLU()
    (2): Dropout(p=0.5, inplace=False)
    (3): Linear(in_features=100, out_features=4, bias=True)
  )
  (fc_user_out): Sequential(
    (0): Linear(in_features=100, out_features=100, bias=True)
    (1): ReLU()
    (2): Dropout(p=0.5, inplace=False)
    (3): Linear(in_features=100, out_features=3, bias=True)
  )
  (fc_ruser_out): Sequential(
    (0): Linear(in_features=100, out_features=100, bias=True)
    (1): ReLU()
    (2): Dropout(p=0.5, inplace=False)
    (3): Linear(in_features=100, out_features=3, bias=True)
  )
)

Epoch  1 / 18
Batch[0] - loss: 3.517562  acc: 50.0000%(8/16)
Batch[1] - loss: 3.549713  acc: 31.0000%(5/16)
Batch[2] - loss: 3.566470  acc: 31.0000%(5/16)
Batch[3] - loss: 3.586085  acc: 25.0000%(4/16)
Batch[4] - loss: 3.494714  acc: 43.0000%(7/16)
Batch[5] - loss: 3.653662  acc: 0.0000%(0/16)
Batch[6] - loss: 3.598993  acc: 25.0000%(4/16)
Batch[7] - loss: 3.534913  acc: 25.0000%(4/16)
…
