…
|  GPU       PID   Type   Process name                             Usage      |
|=============================================================================|
|  No running processes found                                                 |
+-----------------------------------------------------------------------------+
task:  weibo
{'lr': 0.001, 'reg': 1e-06, 'embeding_size': 100, 'batch_size': 128, 'nb_filters': 100, 'kernel_sizes': [3, 4, 5], 'dropout': 0.5, 'epochs': 18, 'num_classes': 2, 'target_names': ['NR', 'FR'], 'save_path': 'checkpoint/weights.best.weibo.pgan', 'maxlen': 50, 'n_heads': 7}
PGAN(
  (word_embedding): Embedding(15666, 300, padding_idx=0)
  (user_embedding): Embedding(10052, 100, padding_idx=0)
  (source_embedding): Embedding(4664, 100)
  (convs): ModuleList(
    (0): Conv1d(300, 100, kernel_size=(3,), stride=(1,))
    (1): Conv1d(300, 100, kernel_size=(4,), stride=(1,))
    (2): Conv1d(300, 100, kernel_size=(5,), stride=(1,))
  )
  (max_poolings): ModuleList(
    (0): MaxPool1d(kernel_size=48, stride=48, padding=0, dilation=1, ceil_mode=False)
    (1): MaxPool1d(kernel_size=47, stride=47, padding=0, dilation=1, ceil_mode=False)
    (2): MaxPool1d(kernel_size=46, stride=46, padding=0, dilation=1, ceil_mode=False)
  )
  (linear): Linear(in_features=400, out_features=200, bias=True)
  (dropout): Dropout(p=0.5, inplace=False)
  (relu): ReLU()
  (elu): ELU(alpha=1.0)
  (fc_out): Sequential(
    (0): Linear(in_features=500, out_features=100, bias=True)
    (1): ReLU()
    (2): Dropout(p=0.5, inplace=False)
    (3): Linear(in_features=100, out_features=2, bias=True)
  )
  (fc_user_out): Sequential(
    (0): Linear(in_features=100, out_features=100, bias=True)
    (1): ReLU()
    (2): Dropout(p=0.5, inplace=False)
    (3): Linear(in_features=100, out_features=3, bias=True)
  )
  (fc_ruser_out): Sequential(
    (0): Linear(in_features=100, out_features=100, bias=True)
    (1): ReLU()
    (2): Dropout(p=0.5, inplace=False)
    (3): Linear(in_features=100, out_features=3, bias=True)
  )
)

Epoch  1 / 18
Batch[0] - loss: 2.942198  acc: 51.0000%(66/128)
Batch[1] - loss: 2.958553  acc: 48.0000%(62/128)
Batch[2] - loss: 2.931878  acc: 53.0000%(68/128)
Batch[3] - loss: 2.862357  acc: 55.0000%(71/128)
Batch[4] - loss: 2.870543  acc: 52.0000%(67/128)
Batch[5] - loss: 2.816044  acc: 53.0000%(69/128)
Batch[6] - loss: 2.804309  acc: 49.0000%(63/128)
…
